minst_net.pth (torch_old, 941608 bytes, 6 tensors)

fc1.weight f4 [256, 784]
00000000: 7de7 efbc e555 b1bc 72cf 1d3c f845 dbbc
00000010: 0f94 d33c 75d2 a2bc af09 b33c 2c1b 0c3d
00000020: 3d2b 263c 23ef 083c 0fd6 1abc c004 4a3b
00000030: bd2b a23b 1faf 103c 6d92 47bc 2cdd 283d
00000040: 4156 4ebc b281 913c b95d 33bc 3225 a13c
00000050: 118f 653b 051b e03c 2a7f a03c 882e dcbc
00000060: 4965 b13c ffb3 af3c 5af3 0a3d 46db f23b
00000070: eb1f 123d daa6 8f3c 4849 9c3c f19b 6e3c
00000080: 5dda 573c 141f 1a3d 3b0f e4bc a3d4 28ba
00000090: 8355 ecba 1716 c83c 5337 18bc a37e fc3c
000000a0: a140 b1bc 4e74 8bbc d3b9 54bc 39eb 0d3d
000000b0: 2b5a debc 931d e73c 0b65 4bb9 8634 f63b
000000c0: 4414 183d eb6b 4fbc ca31 a23a 9e95 8cbc
000000d0: 8361 eebc 2ed3 193c 532a cebc 05a4 53bc
000000e0: c456 483c 81db afbc b114 5d3c adcc 2e3c
000000f0: 0a9d 1d3d 2149 103d 61bd 2cbc f984 f83c
00000100: 2b86 083c 4f03 f63c 3992 92bc a91a f73c
00000110: 03d3 94bc 70e6 113d 2f95 6fba 5d49 043d
00000120: c024 91bb 7be1 c1bc d16e 9c3c 9d1d 27bc
00000130: 6282 ed3c 7cf6 433c 010f e1bc e1e1 04bc
00000140: 0284 a63c 86cc 163c 5385 8cbb a1f9 22bc
00000150: 655a e43c 65f2 2b3c 7c37 263d ec5d 093d
00000160: e520 c4bc 42cc 283d 31cd b93c 53b5 01bc
00000170: 249f 0a3d 45ba ac3c accd a2bc b9fa ee3c
00000180: 3778 a6bc 9ea6 193c f485 e7bc 7029 c93c
00000190: bb55 813c 5510 073d 525d 293d 94f2 a93c
000001a0: 2772 1bbc 79a5 71ba bfaa 403b 1900 c43c
000001b0: 05bb 78bb be2f 0c3d b034 043d 2575 c73b
000001c0: 8a38 203c d502 a0bb 4558 b83b 57c6 cd3c
000001d0: 5d6c d5bc 1180 553c 6845 f1bc 9c97 4b3c
000001e0: 0f34 ad3c a572 0d3d f94c 2cbc cace bc3c
000001f0: 0c12 253c 98d9 693c 2bf3 223a df3e a93c
00000200: e94e 90bc 9e61 e7bc 1510 afbc e1e2 f73c
00000210: 9c5b f83c bdc4 f23c b3ad f9bb b37c 05bc
00000220: 2558 cb3b d9bc e43c b71c adbc 0d77 be3b
00000230: 09ae a5bc 4c51 45bb 6168 7abc 77d4 a9bc
00000240: 41f9 ebbc 4c2a c4bc 5cd9 a4bc 360b 1b3c
00000250: 41ca e73c a27e 523a 50fe 083d fdad a2bb
00000260: 991e 203d ba4b 183c a40a 9f3b 2f94 06bd
00000270: 8b7d 8a3c b731 58ba d1d6 bfbc c334 54b8
00000280: a13d d43c 0740 d53c 93cd 2bbc 067f 36bb
00000290: 4115 0cbc f0f0 173d 59ee cc3c 6a1f 923c
000002a0: ad96 db3c c1a1 56ba 4acb 003d a21b a9bb
000002b0: fccb 083d 19b3 90bc c7a5 fd3c 1471 b33b
000002c0: d67c db3b 621d a13c c04d e0ba 695a bb3c
000002d0: 611e d5bc 2280 73bc b7c9 9bbc a3dd 203d
000002e0: 4a82 3fbc dbff b2bc 5309 ed3b 7a5f 1a3d
000002f0: 1025 d3ba cd16 ecbc 7617 a23c 0e05 92bc
00000300: cf9b 28bc fc04 91bb a3a4 4bba 84bc 483c
00000310: 50f6 0b3d f919 f33a 9737 eb3c 99ae 6cbc
00000320: edbe 643c 551c a3bb e9fc 743c 23bb 0f3c
00000330: d82e 463c a4df 463c bb29 093c 2003 863a
00000340: 22f8 3dbc 52c9 bdbc 90df d93b 0bc3 253d
00000350: 905b e63b 309f 233d cab2 883b 82c0 2c3c
00000360: a6ed dabb f6cc f13c d122 e1bc 70cd 313c
00000370: ef1c e1bc 1359 0bbc 9080 7c3b 057f 643c
00000380: 0ff1 3f3b eefa a2bc b86c eabc 0c13 4ebc
00000390: 151b 273c 7501 f43c d8fc 473c 25cd 89bc
000003a0: 2471 4f3b 02cc 43bc d312 c33c f3bb c03c
000003b0: 0c83 6f3c 6eaf 23bd e07c 2db9 8735 f53b
000003c0: 949e 0e3b 1851 b43c 5e1f eabc 9075 e33c
000003d0: 7903 033d 0ab0 8b3c 2434 b7bc e68d 213d
000003e0: ec71 cabc e693 283d a1be 0f3d e5b8 813c
000003f0: 31dc 2b3c 43bb 61bc e5b2 a6bc bddf 10bb
-0.029285187 -0.021647403 0.009631978 -0.026766762 0.025827436 -0.019875744 0.021855203 0.0342056
0.010142145 0.008357796 -0.00945045 0.0030825585 0.0049490617 0.008830815 -0.012180907 0.04122655
-0.012593807 0.017762039 -0.010947638 0.019671056 0.0035027901 0.027356634 0.019591887 -0.026877657
0.021654742 0.021448134 0.033923484 0.0074113933 0.03567497 0.017535616 0.019077912 0.0145635465
0.01317462 0.037627295 -0.027839294 -0.0006440377 -0.0018030856 0.024424596 -0.009290534 0.030822104
-0.021637263 -0.017023232 -0.012983757 0.034648154 -0.027142605 0.028212344 -0.0001939723 0.0075135855
0.0371287 -0.012660007 0.0012374457 -0.017161187 -0.029099232 0.009388728 -0.025166666 -0.012917523
0.012227718 -0.021466972 0.013493703 0.010668916 0.038479842 0.03522599 -0.010543198 0.030336844
0.008332769 0.030030875 -0.01789199 0.03016408 -0.018167024 0.035620153 -0.00091393566 0.032296527
-0.00442943 -0.023667088 0.01909581 -0.010199931 0.028992835 0.011960622 -0.027472975 -0.008110494
0.020326618 0.009204036 -0.0042883544 -0.0099472115 0.027875135 0.010494803 0.040580258 0.033536837
-0.023941467 0.04121042 0.02268085 -0.007916766 0.033843175 0.021084914 -0.019873463 0.029172288
-0.020320995 0.009378104 -0.028262116 0.024555892 0.01578795 0.03297456 0.041348763 0.020745553
-0.009487665 -0.0009218078 0.0029398648 0.023925828 -0.003795327 0.034225218 0.03227681 0.0060869628
0.009779105 -0.00488315 0.005625757 0.02511899 -0.026052648 0.013031022 -0.02945204 0.012426283
0.021142988 0.03453316 -0.010516399 0.023047823 0.0100751035 0.01427307 0.00062160444 0.020659862
-0.017615752 -0.02824479 -0.021369973 0.030259551 0.03031712 0.029634828 -0.0076195835 -0.008147406
0.006205576 0.02792208 -0.021131856 0.005812532 -0.020224588 -0.0030108271 -0.015283675 -0.020731194
-0.028805377 -0.02394595 -0.020123176 0.009463122 0.028294684 0.0008029734 0.033445656 -0.0049645887
0.03909168 0.009295398 0.0048535634 -0.032856163 0.016905567 -0.0008247154 -0.023417862 -5.0593877e-05
0.025908293 0.026031507 -0.010486024 -0.0027846708 -0.008549989 0.03709501 0.025015997 0.017837245
0.026805246 -0.00081875554 0.03144387 -0.005160765 0.03339766 -0.017663525 0.030962838 0.0054761264
0.006698231 0.019667331 -0.0017113015 0.02287026 -0.026015462 -0.014862092 -0.019017084 0.03927387
-0.011688778 -0.021850517 0.0072337775 0.03768871 -0.0016109068 -0.028819466 0.019786578 -0.017824676
-0.010291054 -0.004425643 -0.0007768368 0.012251977 0.03417045 0.0018547169 0.02871303 -0.014445924
0.013961536 -0.0049777427 0.014952877 0.008772644 0.012096129 0.012138281 0.008371766 0.001022432
-0.011594804 -0.023167286 0.006648965 0.04046921 0.007029958 0.039946735 0.004171704 0.010543944
-0.006681162 0.029516678 -0.027482422 0.010852203 -0.027479617 -0.008505124 0.0038528778 0.013946299
0.002928797 -0.019895043 -0.028616294 -0.012577783 0.010199328 0.029785851 0.012206279 -0.016821453
0.003165313 -0.011950495 0.023812687 0.023527121 0.014618646 -0.039962225 -0.00016545085 0.0074831876
0.0021762 0.022011325 -0.02857941 0.02776602 0.031985734 0.017051715 -0.02236373 0.039441966
-0.024712525 0.041156672 0.035093907 0.015835235 0.010489509 -0.013777557 -0.020348975 -0.0022106015

fc1.bias f4 [256]
00000000: 3492 8fbc 5d63 d1bc 472d 99bc 4f5c 02bd
00000010: bca4 0b3c 482d 03bd 7619 0a3c ef23 a43c
00000020: 9ec2 833c a844 483b b02e 983c 6493 063c
00000030: 4d35 033d d569 d0bb ecb1 0c3c 74d9 e0bc
00000040: 2ba7 39bc 33b3 33bd 2e0a a6bb 2e64 97bb
00000050: 0c82 f0bc a6e9 40bb c078 06bd 2457 12bd
00000060: 274c 30bd a6d1 6a3c e34c 083c 6535 cfbc
00000070: 4886 aabc 390d cdbb 6862 47bc ef86 00bd
00000080: 172c c5bc 5649 7abb fe96 b9bb 8194 65bc
00000090: ab06 253d bb5a 343c dba1 eb3c 4eca d7bc
000000a0: 7f68 773c d6a8 8bbc 0861 c6bc 6c17 b5bc
000000b0: f814 76bc b91f f9bc fdcd 44bb 3888 1ebd
000000c0: 61e7 cabc 2eb5 823c 29a9 f0bc 16b0 cc3c
000000d0: e274 f23c 8423 87bc 3597 843c c1cb 803b
000000e0: d616 8c3c 469b cbbc a3ae 2c3c 9f57 1e3d
000000f0: 5363 0fbb 0642 ef3c ff22 7cbc 4005 943c
00000100: e3db eb3c 5ee5 03bd 89d3 f5bc 2391 7cbc
00000110: 568b ddbb d33f a9bc addd fc3c ee03 bc3c
00000120: ee11 8f3b acbc ceba 7c29 b63c bc75 01bd
00000130: f6cc 1dbc aa9a 18bd 0509 613c ad3b aa3c
00000140: 9712 8d3c 1a19 bf3a 7366 04bc 83d6 773c
00000150: 9571 6cbc ce67 afbc 940c 9dbc c2b7 2ebd
00000160: fd76 85bc ca42 1ebd 3df7 cdbc 2978 893c
00000170: db00 97bc 5795 c0bb 3320 c33a 294f 01bd
00000180: ef03 33bd beca 83bc 5ff0 58ba 581e 11bd
00000190: 5763 34bc 4e98 44bd 07e6 bcbc 1b33 90bc
000001a0: 2236 2bbd ce09 0bbc 294f ab3c ff01 ebbc
000001b0: 9698 59b8 7533 e83a 5fe9 cabb 3d42 11bd
000001c0: cbd1 f73c 63ea 3abd ec46 ac3b 779e 25bd
000001d0: 5062 94bc 1f4f bbbb 9ade ba3b 39fa e3bb
000001e0: 2f7b 813c b85a 3ebc d242 0fbd 908c 8b3c
000001f0: 4eae c3bc 070f bf3c 2800 adbc b674 19bc
00000200: f440 57bc e680 b7bc 5db8 9dbc 8e65 e93c
00000210: 0605 9cbc 1c8c 05bb a5f2 eb3c 3b73 3cbc
00000220: 5928 a0bc ca06 d8bc 837e 10bc 6264 ffbc
00000230: 9ccb 9ebc 8907 88bc 6574 15bd 37e0 c23c
00000240: a934 13bd 2cdd 0ebd 05c5 ce3b 74fc 8b3c
00000250: 660f 80bc 22f7 ed3c f971 e9bc 3a10 5dbc
00000260: 32a0 a93c b7b0 cdbc dfaa 98bc e416 0fbc
00000270: 2b6e 403c 843e c3bc ae13 98bc c02c 27bd
00000280: 2269 9fbb 47c9 5bbb 1667 81bc ea8c 153c
00000290: c1fe 0bbd 02c7 1dbd f414 98bb 72be 18bd
000002a0: 1b9d a73c 7e28 ef3c 838a 9abc fffc ca3b
000002b0: f395 c1bc 0088 a0bc c378 67bb 5c92 883c
000002c0: 437e 003d f7bf 7a3b fc1c 42bc 4ccb 643c
000002d0: 369b 8e3c b471 b63c 2008 963c 96a7 21bc
000002e0: 0a3a 7b3c 80b1 febc 8944 23bd 1422 65bc
000002f0: 240b b3bc 58db da3c d8f8 3fbc 96c4 893c
00000300: 6c26 f93c 883d 4e3a 38b7 f9bb 5eab e63c
00000310: 12e1 703c 27a3 fb3b db15 353c ab2f 8cbc
00000320: e223 05bd 6846 243c 60c7 fbbc 870a 243c
00000330: bc18 e23c 367d 9a3c bbca 363c e2a6 31bd
00000340: f097 29bd 9920 2cbc 47cf 0cbd 9e8f 98bc
00000350: 983c f0bb e14f 3abc 5c45 0abd f456 cf3b
00000360: 303e c3bb c7d3 97bc 7f3b deba 24b2 1bbc
00000370: 68b2 8ebb 50c0 00bd cce6 e03c d566 8cbc
00000380: b822 07bd 7370 8bbc df56 df3c 6758 e23b
00000390: c1d5 39bb a7e4 c2bb aff2 723a 23a7 0abd
000003a0: 379b 98bc 1eda bebb 66ec 913c eb5d 71bc
000003b0: d23f 3cbb 4ded a3bc 7ba3 f13c e7e7 cd3c
000003c0: 0ec1 05bd 7f59 683c 8e00 b83c f824 fa3c
000003d0: 9a75 ca3c 1bf1 17bc 39c5 683c 196e 18bb
000003e0: d342 a2bc c1ac 053c 6aa2 183c 3947 423c
000003f0: 6397 fbbc d29d 943b 3a30 26bd 31fd 3fbd
-0.01752577 -0.025560075 -0.018698348 -0.031826314 0.008523162 -0.032025605 0.008428922 0.020036666
0.016084012 0.00305585 0.01857695 0.008213852 0.032033253 -0.0063602724 0.008587342 -0.02744744
-0.01133136 -0.04387207 -0.0050671315 -0.0046200966 -0.029358886 -0.002943614 -0.03283 -0.035727635
-0.043041375 0.014332211 0.0083191125 -0.025294015 -0.020815983 -0.00625768 -0.012169458 -0.031378683
-0.024068875 -0.0038190684 -0.0056637516 -0.014012457 0.040289562 0.01100796 0.028763702 -0.026341584
0.015100597 -0.01704828 -0.02421619 -0.022105895 -0.015019648 -0.030410634 -0.0030030005 -0.038704127
-0.024768533 0.015955534 -0.029377537 0.024986308 0.02959675 -0.016496427 0.016185382 0.0039305394
0.017100733 -0.024854314 0.0105396835 0.03865778 -0.002187927 0.029206287 -0.015389203 0.01806891
0.028791374 -0.032201163 -0.030008094 -0.015415463 -0.006760995 -0.020660317 0.030867422 0.022951093
0.004366151 -0.0015772781 0.022236578 -0.03160642 -0.009631386 -0.037256874 0.013735061 0.020780409
0.017220778 0.0014579624 -0.008081066 0.015126827 -0.014431377 -0.021411803 -0.019171037 -0.042655714
-0.01629209 -0.038637914 -0.025142306 0.01678093 -0.018433025 -0.0058771777 0.0014886915 -0.031569634
-0.043704923 -0.016087886 -0.0008275564 -0.03542933 -0.011010013 -0.04799681 -0.023058904 -0.017602494
-0.041799672 -0.008486224 0.02091177 -0.028687475 -5.187894e-05 0.0017715531 -0.006192371 -0.03546356
0.030251404 -0.045633685 0.005257478 -0.040434327 -0.018113285 -0.005716219 0.0057028057 -0.006957319
0.015805809 -0.011618309 -0.034975834 0.017034799 -0.023886826 0.023322595 -0.021118239 -0.009366205
-0.013138045 -0.02240033 -0.01925295 0.028490808 -0.019045364 -0.00203777 0.028802225 -0.011502082
-0.01955049 -0.026370425 -0.008819225 -0.031175796 -0.019384198 -0.016605156 -0.036487956 0.023788555
-0.035938893 -0.034878895 0.0063101077 0.017088152 -0.015632343 0.029048506 -0.02849673 -0.013492638
0.02070627 -0.025108678 -0.018636165 -0.008733485 0.011745016 -0.02383352 -0.018564072 -0.04081416
-0.0048648277 -0.0033536719 -0.015796226 0.009127835 -0.0341785 -0.038519867 -0.0046411697 -0.037290998
0.020460656 0.029194113 -0.018864876 0.0061947103 -0.023631072 -0.0195961 -0.0035319782 0.016671352
0.031370413 0.0038261393 -0.011847731 0.013964485 0.017407995 0.022271015 0.018314421 -0.009866616
0.015333662 -0.031090498 -0.039860282 -0.013985176 -0.021855898 0.02671592 -0.011717044 0.016817372
0.030413829 0.0007867445 -0.0076207183 0.028157886 0.014702098 0.0076793614 0.011052574 -0.017112574
-0.032504924 0.010026552 -0.030734718 0.010012276 0.027599685 0.018858533 0.011156733 -0.043372042
-0.041404665 -0.010505819 -0.034377363 -0.01862317 -0.007331442 -0.011371584 -0.033757553 0.0063275043
-0.005958341 -0.0185336 -0.0016954987 -0.009502921 -0.004354764 -0.031433403 0.027453803 -0.017138878
-0.032992095 -0.017021393 0.027263103 0.006907511 -0.0028356167 -0.0059476676 0.000926773 -0.0338508
-0.0186287 -0.0058243414 0.017812919 -0.014731864 -0.0028724563 -0.020010615 0.029496899 0.025134994
-0.032654814 0.014181494 0.022461202 0.030535206 0.02471428 -0.009273793 0.014207178 -0.0023258983
-0.019807255 0.0081588635 0.009316066 0.011857801 -0.030711835 0.004535415 -0.040573336 -0.04687232

fc2.weight f4 [128, 256]
00000000: bb06 663b de83 dfbc 74f6 5c3d 4ac4 59bb
00000010: 231e 893b 486f 843c b576 273d 27ef ef3a
00000020: 41ad b43b ab3f 0e3c 00fa 8ebb a799 29bd
00000030: e0a4 71bd f422 77bd bc6a 05bd 44f8 acbb
00000040: ee17 df3c 0323 d43c 061b 9dbd 0fc6 733b
00000050: 105e 403d 6112 403d d0f3 ad3c ea82 50bd
00000060: 3b96 09bd 1aa6 333d 5390 b33a 1757 97bc
00000070: 80ef 463d 435a d6ba 1198 043d 0bbb 9abd
00000080: 109f 123b e6f7 89bc 48b7 b9bd 0257 2ebd
00000090: 391a 963c d1c9 b53c dcbd 503d 73a5 cc3c
000000a0: 84ac 90bd 7333 61bd 6f5b c93c 14f5 65bd
000000b0: b090 24bd 7262 21bd af93 5bbd 90e8 1ebc
000000c0: 3e37 bb3c 3326 063d 4de8 733c 6340 55bd
000000d0: 3440 f4bc 3074 943c 199c 57bd 512e 273c
000000e0: a264 2e3d ea49 07bd 857e 83bc ad30 53bd
000000f0: 6f87 993c 901c 823c b331 223d 8d4c 5a3d
00000100: c71f 59bd e83c c33c 2b99 893c ed09 2cbc
00000110: b80a 123d 7d45 32bd 3eb4 d3bc 5bde 353d
00000120: ffc9 52bc fd8c 26bd 2478 fcbc 834b 82bb
00000130: d358 343d 98e7 60bd 201e 2abb 34ce e13a
00000140: e30c 55bc bfdf 37bd f7d9 81bb 4bf4 b5bc
00000150: c06f e43b 58bd a2bc d0ae 83bd a044 d43c
00000160: 6379 073d 8e39 2c3d f902 2cbc 78e6 2ebd
00000170: f119 9abc 48aa 22bd 75dc ad3c 6669 3b3d
00000180: 0197 c3bc 1bc6 883d 096c 81bd a082 c1bc
00000190: 8a94 ecbc b490 c0ba e271 88bd 5fab 5ebb
000001a0: 79e8 0a3c ebaa 70bd 78b9 813c 5c77 3c3d
000001b0: 4dbb 1dbd 2043 b83b ac5e 70bd b091 373d
000001c0: 1ab6 323d 6ab6 ff3c f495 163d 7e35 59bd
000001d0: cd7a 93bc 2165 18bd 448d 29bd 4e58 ffbc
000001e0: 7496 d5bc 2ac5 98bc 1246 63bd 8e6d ecbc
000001f0: 02a4 72ba a061 a1bc 3d03 29bd 4a2d 4aba
00000200: 8727 913b f8f9 b8ba 17b3 f3bc e579 89bd
00000210: df05 44bd 4fd6 433c 77ae 4dbc c7a4 5ebd
00000220: d74b 173d baf5 583d 2a0e 7ebd e51c 143d
00000230: 3a8f 1abd 9192 393c e3e6 1e3c 5fff b5bc
00000240: b261 6ebd b2db d03b a8ef 193c 1ef7 5abc
00000250: ea94 13bd f226 493c 7c3c 46bc 77c0 55bd
00000260: 67a5 4a3c da7a 10bd 0cf0 33bd 1a11 4ebd
00000270: 05ab 70bc bacf 44bd 0cfc 883c 8a27 3f3d
00000280: f72f e23c 953e 1b3d 1ee0 3b3d 387a 4cbd
00000290: d016 c63c aff1 1fbb 13f4 fa3b cbbd 033d
000002a0: 1318 85bd 6b0f b33c e5a3 fcbb 4aa5 4fbb
000002b0: e1f8 26bd 3c34 063d 5c30 babb ca21 0e3d
000002c0: d44b b83c aa35 8d3b 5519 fc3b 330a 10bd
000002d0: 4c1f 06bb 06c3 19bd 471d ab3c f2c2 753c
000002e0: 8d40 3bbc c772 393d 47f8 f03b 6bae 8ebd
000002f0: fd95 d93c a47d 883c 1879 e5bc 94a9 3a3d
00000300: fa60 babc 644b 67ba f7b6 98bc 3c4e 86bc
00000310: 28ff b93b cfbc 1ebd 9c06 64bc 8199 4f3c
00000320: c2d9 34bd f0f6 36bd 7d9d 60bb 9789 213d
00000330: c4f4 ebbc 1e24 2d3c de39 7f3a d5d1 383d
00000340: 5e95 2abd 3821 79bd 5cb4 00bd 98d0 3abb
00000350: f201 28bd 8fe2 16bd a9a5 dbbc 381a 833b
00000360: e70f aa3c f225 253c 409f 40bd a9ae 2bbc
00000370: 43aa e73c c08c c03c a5b2 a33b 7c9e 92ba
00000380: 3c04 8c3c 728b 68bd 4368 6cbd b28a 85bd
00000390: e0dc 97bb b709 3bbc 7d8d ec3c fcf4 59bc
000003a0: c315 c73b d51f 21bd 6c3c b13c d2b9 80bd
000003b0: a6bc 9abd 5cc2 853c 38e4 8dbd 206a b6bc
000003c0: 2442 023d 1f28 47bd be94 c5bc 6292 1f3d
000003d0: 180c 93bc 76bd d23c 9cc2 abbc 1fe3 94bc
000003e0: 053d 5d3d 65ad 5e3d e917 49bd 7bf9 ecbc
000003f0: acd6 2ebc aff4 44bd 66dd 2a3d deb8 a6bc
0.0035099227 -0.027284559 0.053945974 -0.003322857 0.004184501 0.016166344 0.040884692 0.0018305526
0.0055138175 0.008682172 -0.0043632984 -0.0414063 -0.058995128 -0.06033607 -0.032572493 -0.005278619
0.02723309 0.025895601 -0.0767117 0.003719691 0.046964705 0.046892527 0.021234423 -0.0509061
-0.033590537 0.04385958 0.0013699628 -0.018474145 0.04856825 -0.0016353804 0.032371584 -0.07555207
0.002237264 -0.01684184 -0.09068161 -0.042563446 0.01832305 0.02219096 0.050962314 0.024981236
-0.07064155 -0.054980706 0.024579732 -0.056141928 -0.040177047 -0.039400525 -0.05360764 -0.009699002
0.02285349 0.032751273 0.014886928 -0.052063357 -0.02981577 0.018121809 -0.0526391 0.010203914
0.04257644 -0.033029474 -0.01605154 -0.051560093 0.018741338 0.01588276 0.039598178 0.05329566
-0.05300882 0.023832753 0.016796669 -0.010500413 0.035654753 -0.0435233 -0.025842782 0.044401508
-0.012865542 -0.0406618 -0.030819006 -0.003976287 0.044030022 -0.054908365 -0.0025957897 0.0017227591
-0.013003561 -0.044891115 -0.003962751 -0.022211215 0.0069713295 -0.019865677 -0.06429827 0.02591163
0.033074748 0.042047076 -0.010498756 -0.04270026 -0.018811198 -0.039713174 0.021223286 0.045754813
-0.023875715 0.066784106 -0.06319434 -0.023621857 -0.028879423 -0.0014691562 -0.066623464 -0.0033976657
0.008478277 -0.05875675 0.015835509 0.046012267 -0.038508702 0.0056232363 -0.058684036 0.044816673
0.043630697 0.031214911 0.0367641 -0.05302953 -0.018002892 -0.03720582 -0.041394487 -0.031170037
-0.026072718 -0.018648703 -0.055486746 -0.028860833 -0.00092560065 -0.019699872 -0.041262854 -0.0007712437
0.004429761 -0.0014112582 -0.029748483 -0.06712703 -0.04785716 0.011952951 -0.012553803 -0.054356363
0.03693756 0.052968718 -0.062025227 0.03616037 -0.037734248 0.011326448 0.009698602 -0.022216497
-0.05819864 0.006373846 0.009395517 -0.013364581 -0.036030687 0.012277352 -0.012099382 -0.052185502
0.012368537 -0.03527341 -0.0439301 -0.050309278 -0.014689212 -0.048049666 0.016721748 0.046668567
0.027610762 0.03790148 0.04586803 -0.049921244 0.0241808 -0.002440553 0.0076584904 0.032163423
-0.064987324 0.021857938 -0.0077099674 -0.0031684213 -0.040764693 0.03276466 -0.0056820344 0.034700193
0.022497095 0.004309376 0.0076934495 -0.035165977 -0.0020465432 -0.037539504 0.020887984 0.015000092
-0.011428964 0.045275476 0.0073538157 -0.06966861 0.026560778 0.016661473 -0.028011844 0.04557188
-0.02275132 -0.0008823185 -0.018641932 -0.016394727 0.005676169 -0.03875428 -0.013917591 0.0126708755
-0.044152983 -0.04466909 -0.0034273558 0.039437857 -0.028803237 0.010567693 0.0009736101 0.045121986
-0.041646354 -0.060822695 -0.031422004 -0.002850568 -0.04101748 -0.036837157 -0.026812391 0.0040009283
0.020759536 0.010079848 -0.047026873 -0.010478654 0.02827943 0.023504615 0.0049956613 -0.0011186148
0.017091863 -0.05677361 -0.05771662 -0.06520595 -0.0046344846 -0.01141589 0.02887606 -0.013303038
0.0060755922 -0.039336998 0.021635257 -0.062854424 -0.07555513 0.01632803 -0.06928295 -0.022267401
0.031801358 -0.048622247 -0.024118777 0.03895796 -0.017950103 0.025725108 -0.02096682 -0.018174706
0.05401327 0.05436458 -0.049095068 -0.028927555 -0.010671299 -0.04808491 0.04171505 -0.020351823

fc2.bias f4 [128]
00000000: 2ad6 efb9 324c 6abc f83b 24bd 2474 54bd
00000010: 780a cebc 4b03 cabd 83c4 13bb c298 973b
00000020: 623a cebb 4671 af3c a52d e93c afa0 383d
00000030: 918d 683c a032 ee3c 9f49 6bbd df01 bb3d
00000040: a749 87bc 6081 79bd 5d6a 1c3d 25d3 003d
00000050: 15a1 e03a 24fd 4b3d c255 043d 566a 39bd
00000060: 4713 253d 8417 f1bc 0b2d 543d a2d9 b5bd
00000070: 09cd bd3c 9fb6 373d 0988 08bc 3f05 343d
00000080: 9def 493d dc98 533c 7876 1abb 253d 843c
00000090: 69ea cdbc f101 e53b 0759 533d d059 8f3d
000000a0: 43f9 7b3c fa4b 0d3d 7e68 73bc 4305 abbc
000000b0: 8a72 a53c 7d4b 0bbd 3d73 47bd 625b 18bb
000000c0: dbf0 ca3c 537b 303d ad17 1e3d bd0a caba
000000d0: badf 843d d22b e8bc f17b 453d c5c6 3bbd
000000e0: 71e7 0f3d de80 62bd 3711 d43c a7fa 3cbb
000000f0: 4adb 17bd e66c f2bc 30eb a03d ea35 183c
00000100: dd49 523d 512f 5a3c 90ef 633c e51c 3e3d
00000110: 0586 b23c b862 42bc 4df6 f03c ed2f e8bc
00000120: 34a8 2f3b 686e 0c3d 3b49 64bd d544 393d
00000130: bba9 a3bb b748 e6bc 145b c83c 774c 06bc
00000140: 9e6c 273d bccb 88bd 66dc 2c38 bbed 883c
00000150: a7d6 2dbd 7e67 ef3c 2a61 593d 0983 0b3c
00000160: 9ed1 a7ba 6f08 71bc c36e f63c 02c6 d1bc
00000170: f2b0 edbc f2ce 913c 2581 4a3d a11f 1a3d
00000180: 22aa 50bd 0643 57bc 4337 c1bc c05b bbbd
00000190: 009f 203d ef22 f53b d748 ab3d 633c abbb
000001a0: f751 c2bd ed45 173d 5a9a 5a3d ef9f f9bc
000001b0: 3c01 c83c 12be b13c 87da 3c3c 07df f2bc
000001c0: 8bde 393d 1c64 07bd b2b5 b93d 6015 cbbc
000001d0: a18a c33c f7e6 56bd c1b6 c3bc 6cfc 2c3d
000001e0: 9ee4 55bc 460e 30bb 3d96 02bc 6837 3ebd
000001f0: 5a12 84b9 32bc a53b 6253 f73c 2d9e 12bc
-0.00045745197 -0.014300393 -0.040096253 -0.051868573 -0.025151476 -0.09863909 -0.002254755 0.0046263644
-0.006293581 0.021416318 0.028464148 0.045075115 0.014193908 0.029076874 -0.057443257 0.09131216
-0.016514612 -0.060914397 0.038187373 0.031451363 0.001713785 0.04980196 0.032308348 -0.045267425
0.040301587 -0.029430158 0.05180077 -0.08879401 0.023169057 0.044851895 -0.008333215 0.043950316
0.04930078 0.0129148625 -0.0023569148 0.016142437 -0.02513619 0.006988757 0.051598575 0.06999552
0.015379253 0.034496285 -0.014856456 -0.020876532 0.020196218 -0.034007538 -0.048693884 -0.0023247828
0.024773052 0.04308636 0.038596798 -0.0015414577 0.06487985 -0.028341208 0.048213903 -0.04584386
0.03513283 -0.05529868 0.025887115 -0.0028835924 -0.037074365 -0.029592942 0.078573585 0.009290198
0.051339973 0.013316945 0.013912097 0.046414275 0.021792421 -0.011864357 0.02941432 -0.028343165
0.0026803138 0.03428498 -0.0557339 0.04523166 -0.0049945987 -0.028110845 0.024457492 -0.008196942
0.04087507 -0.06679484 4.1213258e-05 0.016714921 -0.042441037 0.029224154 0.05307118 0.008515128
-0.001280356 -0.014711483 0.030082112 -0.025607113 -0.029015038 0.017798875 0.049439568 0.03762782
-0.0509435 -0.013138538 -0.023585921 -0.09148359 0.039214134 0.007480971 0.083635025 -0.0052257045
-0.0948829 0.03693192 0.053369857 -0.03047177 0.024414651 0.021697078 0.01152671 -0.029647363
0.04537825 -0.033054456 0.09067859 -0.024790466 0.023869814 -0.05246636 -0.023890855 0.042232916
-0.013054995 -0.0026863976 -0.00797039 -0.04643956 -0.00025190675 0.005057835 0.030191127 -0.008948845

fc3.weight f4 [10, 128]
00000000: 6a83 0d3c 65ee 8d3d 443c 1b3d cf01 7bbe
00000010: 06e0 9ebd a1fa b03c b3c6 b5bd e4c8 64bd
00000020: 3d46 13be e4c6 593d 4715 89bd 4d6b 0a3d
00000030: 65e5 0b3d 5e3b ebbd 6c5d d8bb 61c3 debd
00000040: 3078 25bb ca20 6a3c 11ac 8dbd e1d9 bbbd
00000050: c444 b33d f5ea e43d 0e37 803d 2bb9 dfbd
00000060: 20f4 ac3d 6463 3fbe 988a 9f3d 2e95 2b3d
00000070: c78b 653d c672 2bbe 0a14 e1bd 2167 f1bd
00000080: 7b85 e0bb 46ff c6bd ff36 9dbd 231f b73d
00000090: 32b6 943d f42c 7b3d 5d43 47be e445 573d
000000a0: 9036 db3c 2282 33be 0d09 74bd 2751 7a3d
000000b0: 95e0 943d b1b1 bebd a5ae 313d f367 debd
000000c0: 2cf4 863d 361a 11be 1c83 963c fa25 113d
000000d0: 1290 49ba d730 13be 688d edbc a4aa 38be
000000e0: cbc9 acbd 6ac6 1ebe d177 13bd 061d d13d
000000f0: 5693 c23d 5cda 0bbd f81f c23c 60cf 69bd
00000100: f59d 16be a0b0 cb3a bbda df3b 557c 8bbd
00000110: 4b0e 66bd 095b 953d 9792 b43d 1bdd 22be
00000120: f808 06be a076 6d3c 82b0 ea3d 7c88 92bd
00000130: 4fae e93c 0b03 c1bd 9b6b c83c 1874 a8bd
00000140: 427c b0bd 0885 6ebd ddac 93bd f9a8 b1bd
00000150: 8b3d 8dbd 4b44 423c c1c1 54bd 4d53 fbbd
00000160: 603a cd3d 0a65 dbbc e60e 08bd f23f 2a3d
00000170: 4c3e 2e3e 8c6d b33d 68e7 773d e4c7 dbbb
00000180: eb61 11be 67a9 113d 4e91 e7bb 5c62 1fbd
00000190: ca17 c93c 0274 e9bc 4608 b3bd ebc0 9c3c
000001a0: 915d 753d 2193 cd3d 873b be3c c1e5 573d
000001b0: 13b3 ba3d 736b 8f3d 4ed1 593d 568c 6d3d
000001c0: 7aca 0bbe d960 aa3c 1de2 6c3c cea0 4abd
000001d0: b534 d13d 1e53 27bd ca2c dabc f1ef f7bd
000001e0: ac50 e73c f37b f43d b9ce f6bc d129 923d
000001f0: fc7f d83c db66 303c bb90 903b 1447 3bbc
00000200: 3986 ad3d 5668 c0bd 070e abbd 6dca 6f3d
00000210: ae0a 3f3c edaa 643b a9f1 b43d 8371 373d
00000220: 334e 5e3d 3810 07be c088 6fbb 55f3 04be
00000230: e68a afbd d48f 23bc 3746 2a3d a979 733d
00000240: 9a04 f9bb c6b1 943d dc25 133d 58da e33c
00000250: 85fc 9b3d c7e2 3a3d 2d55 403d d4e9 fa3c
00000260: 297e 18be 26f8 80ba bb2e 8abd bae9 723d
00000270: 1129 52bd 2ffc 933d 1449 ed3d db83 b13d
00000280: 3c19 1bbd 2ec6 303d 6ede acbd 7749 30be
00000290: 21de 303e 3b1a a53d ae78 923d 677b d3bd
000002a0: eb6e 393c 47f0 30bd e766 8b3d cbdc d5be
000002b0: a786 19be 86d1 603d d815 ad3d 9820 5c3d
000002c0: 982d 06be 3951 8a3d 5043 dbbc 1d19 933d
000002d0: 21c1 763d 9ae6 0ebe 4655 13be 8a04 193d
000002e0: 6d9f 983d 998d 373d b921 c33d 6a50 bc3b
000002f0: 3d53 a8bd 7f6f ecbc d4c3 d0bd 101d 7a3d
00000300: 2f89 89bb b88a 923d 216e 323b 7e05 cfbc
00000310: c9c2 59be 01e1 f93d 0388 e8bb 4f75 d4bd
00000320: dfbf a53d 6f3e e43d 72d5 fbbc 013f 30be
00000330: 33c2 1abe ce42 efbd 5c76 41be 3b0a 13bf
00000340: 9c76 cf3d 319d a23c 8392 883d 47fa 53bc
00000350: 280f 9b3d 1aaa 05bb 6485 5f3d 564c 3eb9
00000360: fe73 a0bd a7b4 8dbd 389f 62bd 347f 5ebc
00000370: b74c 11be 7146 a8b9 5de5 0ebd a481 9e3c
00000380: 8f68 56bd cf2f 133d 3a2c 073c 9e7a 1fbd
00000390: 8ec6 d23d 0e47 e1bd cd25 b13c 69de b0bc
000003a0: 9e03 463c c719 8fbd 893b f0bc 54be f0bd
000003b0: d709 82be 3fe5 3b3d 51fb 64bd 8e5e eabc
000003c0: c20e f3bd e5ea c5bd 3224 463d b1e8 7d3d
000003d0: f7b7 a0bd a7a1 da3d bdd2 143d 16d3 d83d
000003e0: 3c75 8a3d 3b9a 8f3b 2b55 ef3d 0bbe 863d
000003f0: c5bc a5bc 7f7f 8a3d 8dd7 a73b faa2 cc3c
0.008637289 0.06930236 0.03789927 -0.24512409 -0.07757573 0.021603884 -0.088757895 -0.055855647
-0.14382263 0.053168193 -0.066935115 0.033793736 0.034154315 -0.11485933 -0.0066029336 -0.10877109
-0.002524864 0.014290044 -0.06917585 -0.091724165 0.087533504 0.11177627 0.06260501 -0.1092399
0.08445001 -0.18690258 0.077901065 0.041890316 0.056041505 -0.16743001 -0.1099015 -0.117872484
-0.0068518496 -0.09716658 -0.07676505 0.08941486 0.072613135 0.061322168 -0.19459291 0.052556887
0.026759416 -0.1753011 -0.059578944 0.06111255 0.07269398 -0.09311236 0.043379445 -0.108596705
0.06589541 -0.14170155 0.018373065 0.035436608 -0.00076890097 -0.143741 -0.028998092 -0.18033844
-0.084369265 -0.15505376 -0.036002938 0.10210614 0.09500758 -0.03414379 0.023696885 -0.057082534
-0.14708693 0.0015540309 0.0068314946 -0.06810824 -0.056165975 0.07292754 0.08817022 -0.15904658
-0.13089359 0.014493614 0.114594474 -0.071549386 0.0285255 -0.094244085 0.024465373 -0.08225268
-0.0861745 -0.058232337 -0.072107054 -0.08674807 -0.06896504 0.011857103 -0.05194259 -0.12271748
0.100209 -0.026781578 -0.033217333 0.04156489 0.17015952 0.08761129 0.06052342 -0.0067071784
-0.14197509 0.035561945 -0.007066882 -0.038912162 0.024547476 -0.0284977 -0.087418124 0.01913496
0.059903685 0.10037828 0.023221744 0.052709345 0.09116187 0.07002916 0.053178124 0.057995163
-0.13651457 0.020798134 0.0144582065 -0.04946976 0.10215131 -0.04085075 -0.026632685 -0.12106312
0.02823671 0.11937704 -0.03012787 0.07136882 0.026428215 0.01076671 0.0044117845 -0.011430521
0.084728666 -0.093949005 -0.08352285 0.058542658 0.011660261 0.0034891919 0.088351555 0.044785988
0.054273795 -0.1318978 -0.0036550015 -0.12983449 -0.08571415 -0.009983022 0.04157087 0.059442196
-0.0075994255 0.0726047 0.035924777 0.027814075 0.07616524 0.045626428 0.04695623 0.030629076
-0.14891876 -0.0009839579 -0.067471944 0.05930493 -0.051308695 0.072258346 0.11586204 0.086677276
-0.037865862 0.04315775 -0.084408626 -0.17215525 0.17272235 0.08061644 0.07151924 -0.103262715
0.011317949 -0.043197896 0.068067364 -0.41770014 -0.14992772 0.054887317 0.08451432 0.05374202
-0.1310333 0.06753773 -0.026765496 0.07182524 0.060242776 -0.13955155 -0.14387998 0.037357844
0.07452283 0.044812772 0.095279165 0.005746891 -0.082190014 -0.02886176 -0.10193601 0.061062872
-0.0041972618 0.07155365 0.0027226286 -0.025271174 -0.21265711 0.12201119 -0.007096292 -0.10373937
0.08093237 0.11144721 -0.030741427 -0.17211534 -0.15113144 -0.11682664 -0.18892807 -0.57437485
0.10130045 0.019850345 0.0666857 -0.012938089 0.0757125 -0.0020395578 0.05457057 -0.0001814825
-0.07834624 -0.06919222 -0.055327624 -0.013580132 -0.1418942 -0.0003209594 -0.034886707 0.019348927
-0.05234581 0.035934266 0.0082502905 -0.038935296 0.102917776 -0.10999881 0.02162447 -0.021590428
0.012085823 -0.069873385 -0.029325264 -0.11755052 -0.25398132 0.045872923 -0.055903737 -0.02860954
-0.11868049 -0.09663943 0.048374362 0.06198949 -0.078475885 0.10675364 0.03633379 0.105871364
0.06760642 0.0043823994 0.116861664 0.065792166 -0.020231614 0.06762599 0.005122131 0.024980057

fc3.bias f4 [10]
00000000: f6cc 3dbd cbc6 2a3d 3bd7 0dbd e60e 543c
00000010: 0df9 35bd 83fb da3c 5ca3 3abd 7d78 eebd
00000020: a2bf b73d b392 85bd
-0.046338044 0.04169349 -0.034629088 0.012943005 -0.044426966 0.026731258 -0.045565948 -0.11644075
0.08972098 -0.06522121
